…
/home/yecm/.conda/envs/torch/lib/python3.11/site-packages/torch/jit/_trace.py:1056: TracerWarning: Encountering a list at the output of the tracer might cause the trace to be incorrect, this is only valid if the container structure does not change based on the module's inputs. Consider using a constant container instead (e.g. for `list`, use a `tuple` instead. for `dict`, use a `NamedTuple` instead). If you absolutely need this and know the side effects, pass strict=False to trace() to allow this behavior.
  module._c._create_method_from_trace(
[34m[1mæ¨¡å‹[0m: åŠ è½½æˆåŠŸã€‚
[34m[1mæŸå¤±å‡½æ•°[0m: åŠ è½½å®Œæˆï¼šMSELoss()ã€‚ 
[34m[1mä¼˜åŒ–å™¨[0m: åŠ è½½å®Œæˆï¼Œå½“å‰ä¸ºå¹³è¡¡æ¨¡å¼ã€‚ 
[34m[1må®éªŒç®¡ç†[0m: æ•°æ®é›†MMoE_Syntheticæ–°å¢å®éªŒ16ã€‚
Model: Shared-Bottom
SharedBottomModel(
  (embedding): EmbeddingLayer(
    (embedding): Embedding(0, 128)
  )
  (numerical_layer): Linear(in_features=50, out_features=128, bias=True)
  (bottom): MultiLayerPerceptron(
    (mlp): Sequential(
      (0): Linear(in_features=128, out_features=512, bias=True)
      (1): BatchNorm1d(512, eps=1e-05, momentum=0.1, affine=True, track_running_stats=True)
      (2): ReLU()
      (3): Dropout(p=0.2, inplace=False)
      (4): Linear(in_features=512, out_features=256, bias=True)
      (5): BatchNorm1d(256, eps=1e-05, momentum=0.1, affine=True, track_running_stats=True)
      (6): ReLU()
      (7): Dropout(p=0.2, inplace=False)
    )
  )
  (tower): ModuleList(
    (0-1): 2 x MultiLayerPerceptron(
      (mlp): Sequential(
        (0): Linear(in_features=256, out_features=128, bias=True)
        (1): BatchNorm1d(128, eps=1e-05, momentum=0.1, affine=True, track_running_stats=True)
        (2): ReLU()
        (3): Dropout(p=0.2, inplace=False)
        (4): Linear(in_features=128, out_features=64, bias=True)
        (5): BatchNorm1d(64, eps=1e-05, momentum=0.1, affine=True, track_running_stats=True)
        (6): ReLU()
        (7): Dropout(p=0.2, inplace=False)
        (8): Linear(in_features=64, out_features=1, bias=True)
      )
    )
  )
)
ClearML Task: created new task id=b08e675a69a94008af7b1d3a93e5ddb8
[34m[1mè®­ç»ƒ[0m: ç»ˆäºå¯ä»¥å¼€å§‹å•¦! 
ClearML results page: https://app.clear.ml/projects/9c3342c69e80438b9f5ec86ef7527bcc/experiments/b08e675a69a94008af7b1d3a93e5ddb8/output/log
  0%|          | 0/1 [00:00<?, ?it/s]100%|â–ˆâ–ˆâ–ˆâ–ˆâ–ˆâ–ˆâ–ˆâ–ˆâ–ˆâ–ˆ| 1/1 [00:01<00:00,  1.57s/it]100%|â–ˆâ–ˆâ–ˆâ–ˆâ–ˆâ–ˆâ–ˆâ–ˆâ–ˆâ–ˆ| 1/1 [00:01<00:00,  1.79s/it]
…
